…
./NatureConservancy/train/OTHER/*.jpg
Load folder SHARK (Index: 5)
./NatureConservancy/train/SHARK/*.jpg
Load folder YFT (Index: 6)
./NatureConservancy/train/YFT/*.jpg
Read train data time: 27.46 seconds
Convert to numpy...
Reshape...
Convert to float...
Train shape: (2058, 3, 244, 244)
2058 train samples
Total memory: 15843721216
Free memory: 15840575488
Used memory: 3145728
----------------------------------------------------------------
        Layer (type)               Output Shape         Param #
================================================================
            Conv2d-1         [-1, 64, 224, 224]           1,792
              ReLU-2         [-1, 64, 224, 224]               0
            Conv2d-3         [-1, 64, 224, 224]          36,928
              ReLU-4         [-1, 64, 224, 224]               0
         MaxPool2d-5         [-1, 64, 112, 112]               0
            Conv2d-6        [-1, 128, 112, 112]          73,856
              ReLU-7        [-1, 128, 112, 112]               0
            Conv2d-8        [-1, 128, 112, 112]         147,584
              ReLU-9        [-1, 128, 112, 112]               0
        MaxPool2d-10          [-1, 128, 56, 56]               0
           Conv2d-11          [-1, 256, 56, 56]         295,168
             ReLU-12          [-1, 256, 56, 56]               0
           Conv2d-13          [-1, 256, 56, 56]         590,080
             ReLU-14          [-1, 256, 56, 56]               0
           Conv2d-15          [-1, 256, 56, 56]         590,080
             ReLU-16          [-1, 256, 56, 56]               0
           Conv2d-17          [-1, 256, 56, 56]         590,080
             ReLU-18          [-1, 256, 56, 56]               0
        MaxPool2d-19          [-1, 256, 28, 28]               0
           Conv2d-20          [-1, 512, 28, 28]       1,180,160
             ReLU-21          [-1, 512, 28, 28]               0
           Conv2d-22          [-1, 512, 28, 28]       2,359,808
             ReLU-23          [-1, 512, 28, 28]               0
           Conv2d-24          [-1, 512, 28, 28]       2,359,808
             ReLU-25          [-1, 512, 28, 28]               0
           Conv2d-26          [-1, 512, 28, 28]       2,359,808
             ReLU-27          [-1, 512, 28, 28]               0
        MaxPool2d-28          [-1, 512, 14, 14]               0
           Conv2d-29          [-1, 512, 14, 14]       2,359,808
             ReLU-30          [-1, 512, 14, 14]               0
           Conv2d-31          [-1, 512, 14, 14]       2,359,808
             ReLU-32          [-1, 512, 14, 14]               0
           Conv2d-33          [-1, 512, 14, 14]       2,359,808
             ReLU-34          [-1, 512, 14, 14]               0
           Conv2d-35          [-1, 512, 14, 14]       2,359,808
             ReLU-36          [-1, 512, 14, 14]               0
        MaxPool2d-37            [-1, 512, 7, 7]               0
AdaptiveAvgPool2d-38            [-1, 512, 7, 7]               0
           Linear-39                 [-1, 4096]     102,764,544
      BatchNorm1d-40                 [-1, 4096]           8,192
             ReLU-41                 [-1, 4096]               0
          Dropout-42                 [-1, 4096]               0
           Linear-43                 [-1, 1024]       4,195,328
             ReLU-44                 [-1, 1024]               0
          Dropout-45                 [-1, 1024]               0
           Linear-46                    [-1, 8]           8,200
          Softmax-47                    [-1, 8]               0
================================================================
Total params: 127,000,648
Trainable params: 106,976,264
Non-trainable params: 20,024,384
----------------------------------------------------------------
Input size (MB): 0.57
Forward/backward pass size (MB): 238.64
Params size (MB): 484.47
Estimated Total Size (MB): 723.68
----------------------------------------------------------------
…
